…
,1))</span><br><span class="line">y = net(X)</span><br><span class="line">net.summary()</span><br></pre></td></tr></table></figure>
<p>output</p>
<figure class="highlight plaintext"><table><tr><td class="code"><pre><span class="line">Model: &quot;vgg&quot;</span><br><span class="line">_________________________________________________________________</span><br><span class="line">Layer (type)                 Output Shape              Param #   </span><br><span class="line">=================================================================</span><br><span class="line">sequential (Sequential)      (1, 112, 112, 64)         37568     </span><br><span class="line">_________________________________________________________________</span><br><span class="line">sequential_1 (Sequential)    (1, 56, 56, 128)          221440    </span><br><span class="line">_________________________________________________________________</span><br><span class="line">sequential_2 (Sequential)    (1, 28, 28, 256)          1475328   </span><br><span class="line">_________________________________________________________________</span><br><span class="line">sequential_3 (Sequential)    (1, 14, 14, 512)          5899776   </span><br><span class="line">_________________________________________________________________</span><br><span class="line">sequential_4 (Sequential)    (1, 7, 7, 512)            7079424   </span><br><span class="line">_________________________________________________________________</span><br><span class="line">sequential_5 (Sequential)    (1, 10)                   119586826 </span><br><span class="line">=================================================================</span><br><span class="line">Total params: 134,300,362</span><br><span class="line">Trainable params: 134,300,362</span><br><span class="line">Non-trainable params: 0</span><br><span class="line">_________________________________________________________________</span><br></pre></td></tr></table></figure>
…
8&#x27;)</span><br><span class="line"></span><br><span class="line">net.summary()</span><br></pre></td></tr></table></figure>
<p>output</p>
<figure class="highlight plaintext"><table><tr><td class="code"><pre><span class="line">Model: &quot;AlexNet-8&quot;</span><br><span class="line">_________________________________________________________________</span><br><span class="line">Layer (type)                 Output Shape              Param #   </span><br><span class="line">=================================================================</span><br><span class="line">conv2d_30 (Conv2D)           (None, 55, 55, 96)        11712     </span><br><span class="line">_________________________________________________________________</span><br><span class="line">max_pooling2d_18 (MaxPooling (None, 18, 18, 96)        0         </span><br><span class="line">_________________________________________________________________</span><br><span class="line">conv2d_31 (Conv2D)           (None, 18, 18, 256)       614656    </span><br><span class="line">_________________________________________________________________</span><br><span class="line">max_pooling2d_19 (MaxPooling (None, 8, 8, 256)         0         </span><br><span class="line">_________________________________________________________________</span><br><span class="line">conv2d_32 (Conv2D)           (None, 8, 8, 384)         885120    </span><br><span class="line">_________________________________________________________________</span><br><span class="line">conv2d_33 (Conv2D)           (None, 8, 8, 384)         1327488   </span><br><span class="line">_________________________________________________________________</span><br><span class="line">conv2d_34 (Conv2D)           (None, 8, 8, 256)         884992    </span><br><span class="line">_________________________________________________________________</span><br><span class="line">max_pooling2d_20 (MaxPooling (None, 2, 2, 256)         0         </span><br><span class="line">_________________________________________________________________</span><br><span class="line">flatten_6 (Flatten)          (None, 1024)              0         </span><br><span class="line">_________________________________________________________________</span><br><span class="line">dense_18 (Dense)             (None, 4096)              4198400   </span><br><span class="line">_________________________________________________________________</span><br><span class="line">dropout_12 (Dropout)         (None, 4096)              0         </span><br><span class="line">_________________________________________________________________</span><br><span class="line">dense_19 (Dense)             (None, 4096)              16781312  </span><br><span class="line">_________________________________________________________________</span><br><span class="line">dropout_13 (Dropout)         (None, 4096)              0         </span><br><span class="line">_________________________________________________________________</span><br><span class="line">dense_20 (Dense)             (None, 10)                40970     </span><br><span class="line">=================================================================</span><br><span class="line">Total params: 24,744,650</span><br><span class="line">Trainable params: 24,744,650</span><br><span class="line">Non-trainable params: 0</span><br><span class="line">_________________________________________________________________</span><br></pre></td></tr></table></figure>
…
class="line">],name=&#x27;LeNet-5&#x27;)</span><br><span class="line">net.summary()</span><br></pre></td></tr></table></figure>
<p>output</p>
<figure class="highlight plaintext"><table><tr><td class="code"><pre><span class="line">Model: &quot;LeNet-5&quot;</span><br><span class="line">_________________________________________________________________</span><br><span class="line">Layer (type)                 Output Shape              Param #   </span><br><span class="line">=================================================================</span><br><span class="line">conv2d_4 (Conv2D)            (None, 24, 24, 6)         156       </span><br><span class="line">_________________________________________________________________</span><br><span class="line">max_pooling2d_4 (MaxPooling2 (None, 12, 12, 6)         0         </span><br><span class="line">_________________________________________________________________</span><br><span class="line">conv2d_5 (Conv2D)            (None, 8, 8, 16)          2416      </span><br><span class="line">_________________________________________________________________</span><br><span class="line">max_pooling2d_5 (MaxPooling2 (None, 4, 4, 16)          0         </span><br><span class="line">_________________________________________________________________</span><br><span class="line">flatten_2 (Flatten)          (None, 256)               0         </span><br><span class="line">_________________________________________________________________</span><br><span class="line">dense_6 (Dense)              (None, 120)               30840     </span><br><span class="line">_________________________________________________________________</span><br><span class="line">dense_7 (Dense)              (None, 84)                10164     </span><br><span class="line">_________________________________________________________________</span><br><span class="line">dense_8 (Dense)              (None, 10)                850       </span><br><span class="line">=================================================================</span><br><span class="line">Total params: 44,426</span><br><span class="line">Trainable params: 44,426</span><br><span class="line">Non-trainable params: 0</span><br><span class="line">_________________________________________________________________</span><br></pre></td></tr></table></figure>
<!--more-->
…
